app/backend/model/incremental_head.pth (torch, 7246 bytes, 2 tensors)

fc.weight f4 [11, 128]
0	0xbe857438	-0.2606523
1	0xbeb41744	-0.35174
2	0xbe44ca93	-0.19217901
3	0xbde377ef	-0.1110686
4	0xbcd5fb3d	-0.026120776
5	0xbd492ef0	-0.04911703
6	0xbe4473c7	-0.1918479
7	0x3e43e1b7	0.19129072
8	0xbeefc8ed	-0.46832982
9	0xbf235600	-0.638031
10	0x3d837c28	0.06420165
11	0x3e76219b	0.24036257
12	0xbe28981e	-0.16464278
13	0x3e06f9cd	0.13181229
14	0x3f1e1ec7	0.6176571
15	0xbebd9f82	-0.37035757
16	0x3df40871	0.119156726
17	0x3d028a76	0.031870328
18	0x3d02624e	0.031832032
19	0xbe1536ea	-0.1457173
20	0x3e0cd76f	0.13754056
21	0xbdd1571b	-0.10221692
22	0x3e89b9b2	0.26899487
23	0x3ef3ad96	0.47593373
24	0xbdee372c	-0.11631617
25	0x3f21aea1	0.6315709
26	0x3dca6978	0.09883398
27	0xbd9b5f8b	-0.07586583
28	0xbe1df687	-0.15426074
29	0x3e5f74f9	0.21821965
30	0xbe379fd4	-0.17932063
31	0x3c1832ef	0.009289487
32	0xbece24c9	-0.4026244
33	0x3e8699fd	0.2628936
34	0xbd2dfa50	-0.042475045
35	0xbe036bab	-0.12834041
36	0xbe6fff11	-0.23437144
37	0xbebd5343	-0.36977586
38	0xbe20bf3b	-0.15697949
39	0xbdd3c252	-0.10339798
40	0x3d4d20fd	0.05008029
41	0x3e055e4c	0.13024253
42	0x3ea4e96d	0.3220934
43	0xbebcc27d	-0.36867133
44	0xbcd0abc0	-0.025472522
45	0x3d90ed7d	0.07076547
46	0x3ea04ccb	0.31308588
47	0x3f34b089	0.7058187
48	0xbc9dd441	-0.01926625
49	0xbec9a89a	-0.39386445
50	0x3d21e34c	0.039523408
51	0xbd649570	-0.055806577
52	0x3e46ee47	0.19426833
53	0xbdfab24a	-0.12241037
54	0x3e710700	0.23537827
55	0x3e37993b	0.17929547
56	0x3c5c0f0c	0.013431322
57	0x3e661f89	0.22472967
58	0x3df5f943	0.120104335
59	0xbe92a5ac	-0.28642023
60	0x3d495a88	0.049158603
61	0xbe9a7bae	-0.30172485
62	0xbed7c55b	-0.42142758
63	0x3e299976	0.16562447
64	0xbdfa71f9	-0.1222877
65	0x3e1547ae	0.14578125
66	0x3e936cd3	0.28793964
67	0xbec726a2	-0.38896662
68	0xbe7ba2b4	-0.24573785
69	0xbe13bb02	-0.14426807
70	0xbbb23a60	-0.0054390877
71	0xbd6d6f95	-0.05796774
72	0x3e0c9bc7	0.137313
73	0x3e79890d	0.24368687
74	0x3f2114ed	0.62922555
75	0xbddbb80d	-0.10728464
76	0x3d1f613c	0.03891109
77	0xbe69bfff	-0.22827147
78	0xbf1fce86	-0.62424505
79	0xbddad209	-0.10684592
80	0xbe016fb8	-0.12640274
81	0xbd90b584	-0.07065871
82	0xbd927019	-0.07150287
83	0xbe927137	-0.28602
84	0x3ed5e91c	0.4177941
85	0x3e863e19	0.26219252
86	0x3e49ff95	0.19726403
87	0xbebbc53f	-0.36673924
88	0xbee91b35	-0.4552857
89	0xbd6c5a27	-0.057703163
90	0xbe61b132	-0.22040251
91	0xbd5d243c	-0.053989634
92	0x3e382709	0.1798364
93	0xbefd058c	-0.49418294
94	0x3e92b49b	0.28653416
95	0x3f05aa2f	0.52212805
96	0xbdf58a13	-0.11989226
97	0xbe823552	-0.25431305
98	0x3f4124fa	0.75447047
99	0x3e325146	0.17413816
100	0x3d917ddb	0.07104083
101	0x3e4d7a2b	0.20066135
102	0x3f2329e5	0.637358
103	0x3cb1ef57	0.021720571
104	0xbc55be3c	-0.013045844
105	0xbecd3739	-0.40081194
106	0x3f5f0dc9	0.8713041
107	0xbe366c8b	-0.17814843
108	0x3e307c06	0.17234811
109	0xbeba2b96	-0.36361378
110	0x3f1647df	0.58703417
111	0x3cccbd5b	0.024992635
112	0xbf0c6d95	-0.5485471
113	0x3f0bbc8a	0.5458456
114	0xbe45d403	-0.19319157
115	0x3d995bc9	0.0748821
116	0x3e32aaa5	0.17447908
117	0x3e0d1050	0.13775754
118	0x3cd98203	0.026551252
119	0x3e68d01e	0.2273564
120	0xbdce9613	-0.10087218
121	0xbe203153	-0.15643816
122	0x3d8a753f	0.06760644
123	0x3e9637d8	0.2933948
124	0x3d881304	0.06644252
125	0x3e54b3d1	0.2077172
126	0xbc63f3bb	-0.01391309
127	0x3ed22435	0.4104325
128	0xbe4edab0	-0.2020061
129	0xbf0acc9d	-0.54218465
130	0xbdc4fb3f	-0.09618234
131	0xbe3294d6	-0.17439589
132	0x3e1b31c8	0.15155709
133	0x3efd6a2c	0.49495065
134	0xbe61f506	-0.22066125
135	0xbebeca2d	-0.37263623
136	0xbe19e05b	-0.15026991
137	0x3cce3ec4	0.025176413
138	0xbe3b091d	-0.18265195
139	0x3edfbc00	0.4369812
140	0x3e1d1146	0.1533862
141	0xbd8523f0	-0.06500995
142	0x3eac9122	0.33704478
143	0x3d182e97	0.037153807
144	0x3ebf59af	0.3737311
145	0xbed916b2	-0.42400128
146	0xbe532690	-0.20620179
147	0xbcf2740f	-0.029596357
148	0xbf141246	-0.57840383
149	0x3c224652	0.009904461
150	0x3ead6f41	0.33873942
151	0xbe80f24e	-0.25184864
152	0xbe5c4ee7	-0.21514474
153	0xbe0551ee	-0.13019535
154	0x3f1f3bb5	0.6220048
155	0x3d6b636f	0.057467874
156	0x3c9951c9	0.018715756
157	0xbe4a8836	-0.19778523
158	0x3db2ba2e	0.08726917
159	0xbdc6fc9e	-0.09716152
160	0xbd804c41	-0.06264544
161	0xbe2cc5b7	-0.16872297
162	0x3d590b98	0.052989572
163	0xbdf560fe	-0.119813904
164	0xbd9fe0c2	-0.07806541
165	0x3eaf5fed	0.34252873
166	0x3d3832e7	0.04497042
167	0x3f087f53	0.5331928
168	0xbc1c99c4	-0.009558145
169	0xbdbd119b	-0.092318736
170	0x3f3211f7	0.6955866
171	0x3e3e9ad6	0.18613753
172	0x3d5d4f24	0.054030553
173	0xbe855eca	-0.2604888
174	0xbec9cd19	-0.3941429
175	0x3cffeff9	0.031242358
176	0x3dd5cedd	0.10439847
177	0xbca24092	-0.01980618
178	0x3ebc689e	0.36798567
179	0x3a3e3088	0.00072551565
180	0xbd19936e	-0.037494116
181	0xbdb079a2	-0.086169496
182	0xbd2dc95e	-0.042428367
183	0xbdec4682	-0.11536886
184	0xbcf5e8d5	-0.03001825
185	0x3e738976	0.23782906
186	0x3e1f4f91	0.15557696
187	0x3d904e68	0.07046205
188	0x3ec57b90	0.38570833
189	0xbe5d9285	-0.21637924
190	0x3e8378e9	0.25678185
191	0x3dfa797f	0.12230205
192	0xbd87eea6	-0.066373155
193	0x3db2f3e3	0.08737924
194	0xbdaf655f	-0.08564257
195	0x3e135ce2	0.143909
196	0xbdcaa79d	-0.09895251
197	0x3f188434	0.59576726
198	0xbedcb1bf	-0.4310436
199	0x3ed5f511	0.41788533
200	0x3dbe32be	0.09287022
201	0xbeb7a733	-0.3586975
202	0x3eb87b3d	0.36031523
203	0x3df48fb3	0.11941471
204	0x3ec7ceb9	0.39024904
205	0x3e498524	0.19679695
206	0x3e376a66	0.17911682
207	0xbbf2d17b	-0.007410226
208	0xbd444efd	-0.04792689
209	0x3dd1c70d	0.10243044
210	0x3d079821	0.033104066
211	0xbe955497	-0.291661
212	0xbd7adabc	-0.061243758
213	0xbe24e8f2	-0.16104487
214	0x3db4311b	0.087984286
215	0xbdc828b2	-0.09773387
216	0x3dc05b12	0.0939237
217	0x3ebcb8d3	0.3685976
218	0x3efb0906	0.49030322
219	0x3e348f34	0.17632753
220	0xbeafab89	-0.34310558
221	0xbc2b4a20	-0.0104546845
222	0x3d27ef94	0.040999964
223	0x3e533600	0.20626068
224	0xbe800d14	-0.25009978
225	0xbdd522fc	-0.10407063
226	0x3edbc51b	0.42923817
227	0xbd8dd357	-0.069250755
228	0xbe74dcd5	-0.23912366
229	0x3eb5ecf8	0.35532355
230	0xbe3daaa8	-0.18522131
231	0x3ec64634	0.38725436
232	0xbde0f624	-0.109844476
233	0x3c7a8ac0	0.01529187
234	0x3ced9613	0.029002225
235	0x3ea4f9fb	0.3222197
236	0x3e74e71b	0.23916285
237	0xbe2797ed	-0.16366549
238	0x3ed17b3d	0.40914336
239	0xbe670d6d	-0.22563715
240	0x3ec1b8d5	0.37836328
241	0x3e23495b	0.15945952
242	0x3e2f86d2	0.17141274
243	0xbea20f96	-0.31652516
244	0x3e8e6704	0.2781297
245	0xbe8df157	-0.2772319
246	0x3d874479	0.06604857
247	0xbed3c9f3	-0.41365013
248	0x3e992415	0.2991034
249	0xbe0bb78f	-0.13644241
250	0x3e8a985a	0.2706936
251	0x3e8df2a7	0.27724192
252	0x3ece4ffd	0.402954
253	0x3e467850	0.19381833
254	0x3ed738c4	0.42035496
255	0x3e724bc3	0.23661713

fc.bias f4 [11]
0	0xbe634ac1	-0.22196485
1	0xbe03f281	-0.12885477
2	0x3e0c561f	0.13704728
3	0xbe355e5e	-0.1771178
4	0xbe3e0ff5	-0.18560775
5	0xbe56e99c	-0.20987552
6	0xbe44be53	-0.19213228
7	0xbe034485	-0.12819107
8	0xbdc4d740	-0.09611368
9	0x3dc38512	0.095468655
10	0xbe63e0da	-0.22253743
